c:\Users\uttam\Desktop\DS\honey_bees_classifier\Dataset
performing split
data preparation
Model: "sequential"
_________________________________________________________________
Layer (type)                 Output Shape              Param #   
=================================================================
conv2d (Conv2D)              (None, 100, 100, 5)       140       
_________________________________________________________________
max_pooling2d (MaxPooling2D) (None, 50, 50, 5)         0         
_________________________________________________________________
conv2d_1 (Conv2D)            (None, 50, 50, 10)        460       
_________________________________________________________________
flatten (Flatten)            (None, 25000)             0         
_________________________________________________________________
dense (Dense)                (None, 6)                 150006    
=================================================================
Total params: 150,606
Trainable params: 150,606
Non-trainable params: 0
_________________________________________________________________
None
model compliled
Train for 50 steps, validate on 388 samples
Epoch 1/30

 1/50 [..............................] - ETA: 5:18 - loss: 1.8591 - accuracy: 0.1250
 5/50 [==>...........................] - ETA: 58s - loss: 2.2880 - accuracy: 0.1688 
…
