c:\Users\uttam\Desktop\DS\honey_bees_classifier\Dataset
spliiting data for Bee Subspecies classification
image preprocessing has done
model has compiled
Model: "sequential"
_________________________________________________________________
Layer (type)                 Output Shape              Param #   
=================================================================
conv2d (Conv2D)              (None, 100, 100, 6)       168       
_________________________________________________________________
max_pooling2d (MaxPooling2D) (None, 50, 50, 6)         0         
_________________________________________________________________
conv2d_1 (Conv2D)            (None, 50, 50, 12)        660       
_________________________________________________________________
flatten (Flatten)            (None, 30000)             0         
_________________________________________________________________
dense (Dense)                (None, 7)                 210007    
=================================================================
Total params: 210,835
Trainable params: 210,835
Non-trainable params: 0
_________________________________________________________________
model trainning has started
Train for 50 steps, validate on 388 samples
Epoch 1/30

 1/50 [..............................] - ETA: 3:35 - loss: 1.9738 - accuracy: 0.0625
 6/50 [==>...........................] - ETA: 32s - loss: 2.6163 - accuracy: 0.2500 
…
